data.pth (torch, 5463 bytes, 6 tensors)

l1.weight f4 [8, 63]
0.10127568 0.5117335 0.6473308 0.45256117 0.5364546 -0.5140138 0.5798327 0.5893447
0.4339746 -0.1447059 0.5339757 0.48163563 -0.025950797 -0.17784394 0.8075456 -0.20604709
0.5394358 -0.35948983 0.5811396 -0.51405704 0.48733437 0.6919261 0.25982875 0.9079824
0.66762775 -0.08909892 -0.06721746 0.38067108 0.41221106 0.69674504 0.45719087 0.5476547
0.33387905 0.039465234 -0.39669874 -0.0794503 -0.10010112 -0.082960255 0.45056206 0.6165978
-0.36957097 0.40919223 0.5716146 0.49845594 0.5577277 -0.40919405 -0.202361 -0.46720904
-0.55824643 0.5929404 -0.20448115 0.52429813 0.35938746 0.5363709 0.24529102 0.37665686
0.4739693 -0.008496038 0.79982185 -0.1579702 0.5261486 0.4683529 0.47719765 -0.10933926
-0.072586864 -0.24008748 -0.17987454 -0.004729406 -0.5053061 0.007806231 -0.16129088 -0.08801441
0.24672866 -0.044866323 -0.21203166 0.45425376 -0.1906151 0.458645 -0.019439027 -0.020395566
0.0036895198 -0.29328746 -0.50529665 0.4737028 -0.5053399 -0.27385923 -0.5053605 -0.50536495
0.25585926 -0.54406106 -0.024899743 -0.27063242 0.55901855 0.11154247 0.31382677 0.083091095
0.46328098 -0.34828317 0.098322004 0.07505053 0.41169977 -0.4157953 0.14378719 -0.07929179
0.25977823 -0.036855854 0.04791159 -0.08331211 0.8292872 0.46419603 0.71788037 -0.17092839
0.42194173 -0.07408657 0.10638575 -0.16309515 0.108534336 -0.54966456 -0.12214241 0.06287352
0.3452813 0.46246964 -0.16892491 0.36330813 0.027071564 0.0443477 0.4202513 0.058867577
0.49873686 0.40807217 0.5696121 -0.47109488 0.29721794 0.5005641 0.37225115 -0.06469968
0.43788162 0.4186077 -0.091853485 0.2896356 0.16019563 0.2810296 -0.022784667 0.25652018
0.49259657 -0.47109947 -0.2400241 0.7397359 0.37466058 0.6651438 0.7032872 -0.04341801
0.5691332 0.44790852 0.4778158 -0.14801365 -0.29930156 -0.20770092 -0.45998394 -0.030841477
-0.51691633 0.25285864 0.2952145 -0.06718991 0.50190276 -0.25502774 0.42550224 -0.29420856
0.40141743 0.34951124 0.394061 -0.45937154 -0.08219616 -0.45637667 -0.39297983 -0.35427383
0.17602316 -0.092668295 0.5147052 -0.10088008 0.668519 0.3960386 0.3064413 -0.07853504
-0.32349 0.23167719 -0.105365604 0.3735585 0.4443139 -0.28984177 0.24804899 0.112607606
0.42423075 0.63801485 -0.109957755 0.11441804 0.3329583 -0.0021971995 0.20681074 0.40373674
0.55457765 0.23461519 -0.35166335 0.5242226 -0.30076858 0.41757333 -0.38987848 0.58802724
-0.11832302 0.5561766 0.6839226 -0.28303134 0.6421365 0.6955669 0.2278658 0.3515833
0.077953815 0.4695019 0.63198936 0.24629223 0.41660595 -0.01775319 0.3193377 -0.06984174
-0.25355738 -0.0687267 0.23744757 0.24030899 0.5719424 -0.22806443 0.39370358 0.06682896
0.31155065 0.30789173 0.42035577 0.2774777 0.40932912 -0.0822819 0.60630393 -0.3621844
0.2823202 -0.18244708 0.51120996 -0.74903744 -0.17623247 0.47366285 0.21064495 0.6713643
-0.38164547 0.37919363 0.24067517 0.1739386 -0.015542804 -0.195849 -0.2655338 0.5142222
00000000: a069 cf3d f700 033f 79b7 253f 19b6 e73e
00000010: 1755 093f 6996 03bf ea6f 143f 4bdf 163f
00000020: eb31 de3e c92d 14be a2b2 083f f298 f63e
00000030: c496 d4bc b91c 36be 4fbb 4e3f 02fe 52be
00000040: 7718 0a3f 0d0f b8be 91c5 143f 3e99 03bf
00000050: e483 f93e 1222 313f 4608 853e 8971 683f
00000060: a7e9 2a3f 7f79 b6bd 4fa9 89bd 52e7 c23e
00000070: 540d d33e e25d 323f ec14 ea3e 1933 0c3f
00000080: 32f2 aa3e 4ca6 213d 191c cbbe d7b6 a2bd
00000090: d101 cdbd 11e7 a9bd 12b0 e63e 5ad9 1d3f
000000a0: 6838 bdbe a581 d13e 5655 123f 9e35 ff3e
000000b0: 3ec7 0e3f e281 d1be b937 4fbe 0636 efbe
000000c0: 3de9 0ebf f1ca 173f 8263 51be 6738 063f
000000d0: a201 b83e 9a4f 093f 922d 7b3e 2bd9 c03e
000000e0: 1bac f23e f732 0bbc 20c1 4c3f f1c2 21be
000000f0: adb1 063f f4cb ef3e 4053 f43e 43ed dfbd
00000100: 6ca8 94bd 7ed9 75be 0831 38be 22f9 9abb
00000110: be5b 01bf 69cb ff3b 7029 25be e640 b4bd
00000120: 70a6 7c3e c0c5 37bd d41e 59be f393 e83e
00000130: 9b30 43be 84d3 ea3e 983e 9fbc 9a14 a7bc
00000140: dfcb 713b c629 96be 1f5b 01bf 2c89 f23e
00000150: f55d 01bf 4737 8cbe 4e5f 01bf 995f 01bf
00000160: fcff 823e 9647 0bbf 8cfa cbbc 5590 8abe
00000170: d71b 0f3f 6170 e43d e7ad a03e aa2b aa3d
00000180: 2a33 ed3e 2c52 b2be 0c5d c93d 18b4 993d
00000190: 50ca d23e 1fe3 d4be f33c 133e bc63 a2bd
000001a0: a701 853e 2af6 16bd f23e 443d 8a9f aabd
000001b0: 2a4c 543f 1aab ed3e 02c7 373f da07 2fbe
000001c0: bf08 d83e b3ba 97bd c6e0 d93d 6a02 27be
000001d0: 4047 de3d d1b6 0cbf cd25 fabd d5c3 803d
000001e0: b6c8 b03e d2c8 ec3e a7fa 2cbe 8603 ba3e
000001f0: 2fc5 dd3c efa5 353d 2e2b d73e 211f 713d
00000200: 705a ff3e d6ee d03e 19d2 113f 5933 f1be
00000210: f32c 983e f824 003f b497 be3e 4481 84bd
00000220: 0532 e03e c053 d63e ae1d bcbd 1e4b 943e
00000230: 530a 243e 1de3 8f3e e9a6 babc 9d56 833e
00000240: 9e35 fc3e f333 f1be e1c8 75be 555f 3d3f
00000250: 83d3 bf3e dd46 2a3f a10a 343f 15d7 31bd
00000260: b7b2 113f 4454 e53e 46a4 f43e e490 17be
00000270: 0e3e 99be 8daf 54be 0483 ebbe 44a7 fcbc
00000280: a154 04bf b076 813e 5b26 973e dd9a 89bd
00000290: b37c 003f ff92 82be 6edb d93e 81a2 96be
000002a0: 9686 cd3e 23f3 b23e 5dc2 c93e bf32 ebbe
000002b0: 7656 a8bd 34aa e9be a734 c9be 6163 b5be
000002c0: 6a3f 343e e0c8 bdbd b8c3 033f 379a cebd
000002d0: 1024 2b3f 92c5 ca3e e0e5 9c3e fbd6 a0bd
000002e0: 7ba0 a5be c93c 6d3e ecc9 d7bd 0f43 bf3e
000002f0: 1d7d e33e 2466 94be 8e00 7e3e d19e e63d
00000300: c634 d93e f154 233f 8831 e1bd 0154 ea3d
00000310: 8379 aa3e e4fe 0fbb 32c6 533e 95b6 ce3e
00000320: cdf8 0d3f f73e 703e 380d b4be 7433 063f
00000330: 57fe 99be 2ccc d53e 279e c7be f488 163f
00000340: 5753 f2bd 9761 0e3f 8d15 2f3f 7ce9 90be
00000350: 0f63 243f ac10 323f a755 693e ba02 b43e
00000360: 40a6 9f3d 8e62 f03e 0eca 213f 0834 7c3e
00000370: 604d d53e 236f 91bc 3b80 a33e 3009 8fbd
00000380: 46d2 81be 96c0 8cbd 7525 733e 8f13 763e
00000390: d16a 123f b989 69be 8493 c93e 9fdd 883d
000003a0: 9183 9f3e fca3 9d3e df38 d73e 8f11 8e3e
000003b0: 9693 d13e 6a83 a8bd bc36 1b3f 3c70 b9be
000003c0: 468c 903e 68d3 3abe a8de 023f ebc0 3fbf
000003d0: 4976 34be f083 f23e 4fb3 573e 88de 2b3f
000003e0: 0967 c3be ab25 c23e 8d73 763e f61c 323e
000003f0: 3fa7 7ebc a48c 48be 0cf4 87be 11a4 033f

l1.bias f4 [8]
0.5140695 0.50533026 0.4712113 0.749103 1.1554531 0.53825074 0.38552028 0.4767175
00000000: 0f9a 033f 535d 013f 9c42 f13e 37c5 3f3f
00000010: e3e5 933f cdca 093f ea62 c53e 5114 f43e

l2.weight f4 [8, 8]
0.64856035 -0.6263227 1.0463164 0.72939503 0.63004744 -0.7258292 0.31661144 -0.9546833
0.12361336 1.3658432 -0.1977785 1.1038342 1.0360504 1.2045052 -1.0556799 -0.31305906
0.7788967 -0.5617383 1.0166801 -1.1060888 -0.36703065 0.7361566 0.99299675 0.99932563
1.1771637 0.46444425 0.24841353 0.67641675 0.33952346 0.75006104 0.4315641 -0.9075916
-0.22872184 -1.0516549 0.36722875 -0.18316814 1.5133231 0.025715549 -0.352529 1.2018796
1.0426247 -0.6836152 1.0960085 0.32276672 0.43318 -0.70128125 -0.11186024 -0.938693
1.1288898 -0.79962933 0.016209023 0.39467254 0.26094484 -0.56254655 0.9439479 0.13740414
1.5778428 -0.7081431 0.5775026 0.62407666 -0.61271304 0.42922786 0.90092266 0.66266525
00000000: 0d08 263f af56 20bf b2ed 853f a2b9 3a3f
00000010: ca4a 213f f1cf 39bf e51a a23e 2066 74bf
00000020: 0029 fd3d f3d3 ae3f 7286 4abe 704a 8d3f
00000030: 4d9d 843f 3a2d 9a3f 8520 87bf 4749 a0be
00000040: c665 473f 15ce 0fbf 9322 823f 5194 8dbf
00000050: 71eb bbbe c274 3c3f 0935 7e3f ced3 7f3f
00000060: 4dad 963f a3cb ed3e 1e60 7e3e a629 2d3f
00000070: 05d6 ad3e 0004 403f f8f5 dc3e ec57 68bf
00000080: 0f36 6abe a19c 86bf 6805 bc3e 6e90 3bbe
00000090: 92b4 c13f 6aa9 d23c ae7e b4be 31d7 993f
000000a0: ba74 853f 6801 2fbf 024a 8c3f ae41 a53e
000000b0: c5c9 dd3e 2b87 33bf fb16 e5bd 2f4e 70bf
000000c0: 767f 903f 82b4 4cbf c9c8 843c 8512 ca3e
000000d0: 909a 853e 0d03 10bf 92a6 713f acb3 0c3e
000000e0: c1f6 c93f de48 35bf 36d7 133f 7dc3 1f3f
000000f0: c3da 1cbf c1c3 db3e dea2 663f 6ea4 293f

l2.bias f4 [8]
0.25907558 0.5005279 0.20796631 -0.46652284 0.64115554 0.47962666 0.62819207 0.062694706
00000000: 8ea5 843e 9922 003f 1ff5 543e 15dc eebe
00000010: c522 243f a091 f53e 32d1 203f 1566 803d

l3.weight f4 [8, 8]
-0.9364712 -0.11243264 0.5736464 -0.6667101 0.43380913 -0.5225424 -0.8182873 -0.67037624
-1.428098 1.0189577 -0.53654 0.11292918 -0.8618442 -0.6830924 -0.5433312 -1.7840905
-1.3600155 -0.57978714 0.120579734 0.11361987 -1.1590167 -0.7111768 0.32225856 0.5137975
0.15745734 0.10287273 -1.008393 -1.7904359 1.0893766 0.1314791 0.34548944 -1.7653241
0.85402083 -0.21903037 -0.82971996 -0.6601401 -0.10340487 0.8684641 0.36427146 -0.5965762
-0.083616264 0.1640847 -0.7345206 0.25705618 -1.2080739 -0.21437366 -0.044033818 -0.13226694
0.65766174 -1.1865238 0.0975872 0.08660612 -1.6012955 0.24309722 0.24205655 -0.04816884
-0.33193713 -1.5053556 0.77082133 -1.1169907 0.19790702 0.043620747 0.38147283 0.19421296
00000000: 94bc 6fbf 1543 e6bd 7eda 123f 83ad 2abf
00000010: 3b1c de3e 57c5 05bf 477b 51bf c79d 2bbf
00000020: eacb b6bf 356d 823f af5a 09bf 6a47 e73d
00000030: d2a1 5cbf 25df 2ebf c117 0bbf 145d e4bf
00000040: fd14 aebf ee6c 14bf 82f2 f63d 89b1 e83d
00000050: a95a 94bf af0f 36bf 13ff a43e 3c88 033f
00000060: 7f3c 213e f0ae d23d 0613 81bf 012d e5bf
00000070: b170 8b3f 75a2 063e fee3 b03e 24f6 e1bf
00000080: 1ca1 5a3f 7f49 60be 8768 54bf f1fe 28bf
00000090: efc5 d3bd aa53 5e3f ca81 ba3e 38b9 18bf
000000a0: 013f abbd d205 283e 8b09 3cbf de9c 833e
000000b0: 2aa2 9abf c584 5bbe ce5c 34bd fc70 07be
000000c0: 855c 283f 03e0 97bf ccdb c73d 8d5e b13d
000000d0: 40f7 ccbf 7aee 783e acdd 773e b14c 45bd
000000e0: aaf3 a9be 7eaf c0bf 8c54 453f 8df9 8ebf
000000f0: 23a8 4a3e abab 323d 6850 c33e c3df 463e

l3.bias f4 [8]
-0.23329742 0.6170957 -0.18519494 0.40012664 -0.053993687 -0.5041825 0.048952624 -0.17409953
00000000: 85e5 6ebe fcf9 1d3f bea3 3dbe 66dd cc3e
00000010: 7c28 5dbd 1b12 01bf 8c82 483d 2647 32be
